# parameters
# https://blog.csdn.net/weixin_43871135/article/details/106803636?utm_medium=distribute.pc_aggpage_search_result.none-task-blog-2~all~top_click~default-1-106803636.nonecase&utm_term=yolov5&spm=1000.2123.3001.4430
# 楼上做了一些奇怪的改动
nc: 10 # number of classes
depth_multiple: 1.0  # model depth multiple， 模型的深度
width_multiple: 1.0  # layer channel multiple， 卷积核的个数

# 根据你的检测层相应增加anchors
anchors:
  - [10,13, 16,30, 33,23]  # P3/8
  - [30,61, 62,45, 59,119]  # P4/16
  - [116,90, 156,198, 373,326]  # P5/32

# YOLOv5 backbone
backbone:
  # [from, number, module, args] ,https://blog.csdn.net/mary_0830/article/details/107124459
  [[-1, 1, Focus, [64, 3]],  # 0-P1/2
   [-1, 1, Conv, [128, 3, 2]],  # 1-P2/4  128个卷积核,3×3的卷积核，步长为2
#    # add CBAM ,args不确定
#   [-1, 1, ChannelAttention, [128, 3, 2]],
#   [-1, 1, SpatialAttention, [128, 3, 2]],

   [-1, 3, BottleneckCSP, [128]],
   [-1, 1, Conv, [256, 3, 2]],  # 3-P3/8
   [-1, 9, BottleneckCSP, [256]],
   [-1, 1, Conv, [512, 3, 2]],  # 5-P4/16
   [-1, 9, BottleneckCSP, [512]],
   [-1, 1, Conv, [1024, 3, 2]],  # 7-P5/32
#    # add CBAM
#   [ -1, 1, ChannelAttention, [ 1024, 3, 2 ] ],
#   [ -1, 1, SpatialAttention, [ 1024, 3, 2 ] ],

   [-1, 1, SPP, [1024, [5, 9, 13]]],
   [-1, 3, BottleneckCSP, [1024, False]],  # 9
  ]

# YOLOv5 head
# 特征图输入head中进行检测，包括类别和位置的检测
head:
  [[-1, 1, Conv, [512, 1, 1]],
   [-1, 1, nn.Upsample, [None, 2, 'nearest']],
   [[-1, 6], 1, Concat, [1]],  # cat backbone P4
   [-1, 3, BottleneckCSP, [512, False]],  # 13

   [-1, 1, Conv, [256, 1, 1]],
   [-1, 1, nn.Upsample, [None, 2, 'nearest']],
   [[-1, 4], 1, Concat, [1]],  # cat backbone P3
   [-1, 3, BottleneckCSP, [256, False]],  # 17 (P3/8-small)

   [-1, 1, Conv, [256, 3, 2]],
   [[-1, 14], 1, Concat, [1]],  # cat head P4
   [-1, 3, BottleneckCSP, [512, False]],  # 20 (P4/16-medium)

   [-1, 1, Conv, [512, 3, 2]],
   [[-1, 10], 1, Concat, [1]],  # cat head P5
   [-1, 3, BottleneckCSP, [1024, False]],  # 23 (P5/32-large)

   [[17, 20, 23], 1, Detect, [nc, anchors]],  # Detect(P3, P4, P5)
  ]


